Classifier.pt (torch, 21383 bytes, 6 tensors)

projection.weight f4 [17, 256]
000000 f0 16 0c 3d 7f c5 47 3d 2a f5 c0 bb 69 29 c0 bd
       0.034201562 0.04877233 -0.005888601 -0.09382898
000010 e8 0a 27 bd 10 1a dd bc b1 dc 7f 3d 1c d2 72 bd
       -0.040781885 -0.026989967 0.062466327 -0.059282407
000020 70 18 ee 3c 44 77 d7 3b 2b af 4a 3d 1c b6 83 bc
       0.029064387 0.006575497 0.04948346 -0.016078047
000030 86 3e 7f bd 68 13 84 bc 6c e8 70 3d 9e be 42 bd
       -0.062315486 -0.016122535 0.058815405 -0.047545068
000040 70 87 fd bb a6 ed 23 3d aa 41 19 bd 6e 00 71 3c
       -0.0077370927 0.04002156 -0.037416138 0.014709575
000050 99 e5 5f bd 40 63 32 bc 85 30 ee 3c c2 50 6f bd
       -0.05466232 -0.010887921 0.02907587 -0.058426626
000060 d5 d9 0f 3d 17 bb 82 3c 9d 21 0e be cb fd 83 3c
       0.03511985 0.015958352 -0.1388001 0.016112229
000070 03 f8 79 3d cb 7c 0f 3e 2f df cc 3c ec e3 10 bc
       0.061027538 0.14012448 0.025008766 -0.008843403
000080 0b 0a b7 3d 98 f1 b8 3d 7b 47 44 3c e8 f5 49 bd
       0.089374624 0.09030455 0.011979933 -0.04930678
000090 1b 0b 28 bb 17 f6 18 3d 63 e8 0d 3d f7 d0 2e bd
       -0.0025641385 0.037344065 0.03464545 -0.042679753
0000a0 fe e2 30 3d 13 18 4e bd 0a 37 3a bd 0f 5c 2d bd
       0.043185227 -0.050315928 -0.045462646 -0.042324122
0000b0 a9 b0 91 3d d8 17 95 3c 20 1a 61 3d 30 b7 de 3c
       0.071137734 0.018199846 0.054956555 0.02718696
0000c0 0b d4 8c 3d e8 e3 7d bd de 93 fa 3c 52 0e 61 bd
       0.068763815 -0.061984926 0.030588087 -0.054945298
0000d0 e7 c9 9b b9 aa bd 84 bd aa 8f 43 3d 56 84 67 3d
       -0.00029714333 -0.06481488 0.04774443 0.05652269
0000e0 6e 08 62 bd 4c f5 74 3d 6b c1 8c 3c 3f f7 da 3b
       -0.05518382 0.059804246 0.017182073 0.006682306
0000f0 a0 ba 24 bc 2b 28 80 bb 30 2d 36 3c 60 aa 92 bd
       -0.0100542605 -0.0039110384 0.011119172 -0.07161403
000100 15 47 1a bd 38 1f a6 3d e9 d4 1c bd 29 d0 1b 3d
       -0.037665445 0.08111423 -0.038288984 0.038040314
000110 fc 97 76 3d 0f 96 c7 bd 2b c0 f5 3d 3b 06 b9 bc
       0.060203537 -0.09745418 0.11999544 -0.022585979
000120 b6 05 73 3c 34 49 2a 3d 56 dd 8b bd 7a 72 28 3c
       0.014832905 0.04157372 -0.06829326 0.0102812
000130 2d 12 18 3d 64 24 02 bd 30 3b cc bc 93 1f 39 bd
       0.03712671 -0.031772986 -0.024930567 -0.045196127
000140 15 29 39 3d 49 6e 5b 3a 96 76 bc bd 29 b5 07 bd
       0.045205195 0.0008370621 -0.09202306 -0.033131752
000150 a5 06 00 3d 53 d3 16 bd cf 5d 49 3d 5d 8e 39 3c
       0.031256337 -0.03682263 0.04916173 0.011325446
000160 55 56 dc bc 3d 5c 22 3d 82 9f 36 bd 63 4f 81 bd
       -0.026896635 0.039638747 -0.044585712 -0.0631397
000170 f3 b9 56 bd c4 c8 38 bb bc 9a 28 be 97 22 4e 3d
       -0.05242343 -0.0028195838 -0.16465276 0.050325956
000180 88 ba b7 b9 ff 4f 3e 3c 59 f7 85 bd ff 4a 1a 3d
       -0.00035043457 0.011615752 -0.065413184 0.037669178
000190 a6 2a 97 3d c7 c7 f1 bc cd ec f2 3c a8 6c 71 bd
       0.073811814 -0.029514207 0.029653931 -0.058941513
0001a0 97 c1 48 bd 83 0e 38 3c 62 a5 26 bd 02 33 43 bc
       -0.049012747 0.011233929 -0.040685065 -0.011914017
0001b0 d1 da 8b 3b ef ef 4b 3c 96 09 15 bd 1e 4c 07 3d
       0.0042680283 0.012447341 -0.036386095 0.033031575
0001c0 0f f8 30 bd 82 52 fe bc 38 97 8f bd 7d ac d8 bd
       -0.043205317 -0.031045202 -0.070112646 -0.105797745
0001d0 51 ce 55 3a c8 86 6d 3b 03 c2 3d 3a ed 4d 4d bd
       0.0008156049 0.0036243666 0.0007238688 -0.050123144
0001e0 48 2e 1d 3d 11 eb 01 bd e2 4e 9a 3c e3 04 a7 3b
       0.038374215 -0.031718317 0.018836442 0.005097018
0001f0 b2 00 31 3d 31 31 b2 3d f5 79 9e 3c 01 a7 14 3c
       0.043213554 0.08700789 0.019345263 0.00907302
000200 e0 d1 2a bd fc 87 10 bc 6b 18 38 3d 19 c2 6c bd
       -0.04170406 -0.008821484 0.04494516 -0.057802293
000210 e6 1b 5e 3d 18 2e 4b 3c 29 54 59 bd 08 64 89 3d
       0.054225825 0.012401126 -0.053058777 0.067085326
000220 98 7d 93 3d d7 01 16 bd c5 43 9b bb a8 e4 26 3d
       0.072016895 -0.03662285 -0.0047383034 0.040745407
000230 bf 11 fa 3c 13 ba ed ba 34 e0 8f bb 23 c7 e8 3b
       0.03052604 -0.001813712 -0.0043907408 0.007103817
000240 c9 0c 6c 3d 7a 0d 68 bd f6 85 35 bc 2e 2a 8d bd
       0.05762938 -0.056653477 -0.011079302 -0.06892811
000250 7e ee 8d bd 5c 40 f6 bc 55 57 9e bc bb 77 24 3d
       -0.069302544 -0.030059986 -0.019328753 0.040153246
000260 dc 06 1b 3d 02 94 10 bb 0e db be bd 28 46 36 bd
       0.03784834 -0.0022060876 -0.09319125 -0.0445005
000270 7f 10 fa bd f9 90 d8 bd b8 a1 df bc 1e 3e 92 bc
       -0.12210178 -0.10574526 -0.027298793 -0.017851885
000280 89 36 e0 3c 14 fd 3c 3d 97 38 9c 3d 68 f1 d9 bc
       0.027369754 0.04613979 0.07627981 -0.02660437
000290 a8 a8 e3 bc d6 ea 36 3d 9d fb 5b 3b 50 fc 2b bd
       -0.027790383 0.04465755 0.0033566721 -0.04198867
0002a0 66 d5 47 3d b2 e9 06 3d 26 bd fc bc 6d eb 22 3d
       0.048787497 0.032937713 -0.030851912 0.0397753
0002b0 fd fc 67 3d f0 cb 06 3d 74 ba 66 3d ce 90 57 3d
       0.056637753 0.032909334 0.05633016 0.05262833
0002c0 e3 d1 2f bc fd 5b 88 bc 9a ec 8e bc a7 59 b6 bc
       -0.010731193 -0.016645426 -0.017446805 -0.022259546
0002d0 3c 41 58 bd e3 91 da bd 54 5a be bd d6 46 0f be
       -0.052796587 -0.10672357 -0.092945725 -0.13991866
0002e0 d6 33 9b bc 6f 2a d0 3c f9 80 a4 3d 31 a8 3a bd
       -0.018945616 0.025410859 0.08032412 -0.045570556
0002f0 fc b8 19 bd 55 c5 2a bd dc 6e 07 3d 6a 3e 13 3d
       -0.03752993 -0.041692097 0.033064708 0.035948195
000300 36 81 6f 3d 60 26 3d bc 6c 12 aa 3d 0c c7 93 3d
       0.058472835 -0.011544794 0.08304295 0.072156996
000310 41 74 a4 bd 60 16 7d 3d 1d a2 2d 3c 62 02 15 bd
       -0.08029986 0.061788917 0.010597733 -0.036379226
000320 03 a6 e2 bb 6f 10 c5 3d 88 07 d3 3c a8 08 8c bd
       -0.006916763 0.09622275 0.025760427 -0.068375885
000330 54 b2 85 bd 5b e5 bb 3d 68 c3 89 3d 76 18 46 3d
       -0.06528154 0.091746055 0.06726724 0.04836317
000340 ae 46 c1 3d 13 c7 c1 3b 7c 25 b2 3c 16 1f 03 3d
       0.09437309 0.005913624 0.02174639 0.032012068
000350 9a 4d 00 3c 95 eb 4e 3d ca d8 37 bc da de 25 3d
       0.007831002 0.050517637 -0.01122112 0.04049573
000360 45 e2 97 bc 17 b0 85 3c 0c fa 1d 3d 90 98 0b bd
       -0.01854051 0.016319318 0.03856854 -0.03408104
000370 14 b0 aa bd fb 4c fb bc 50 15 57 bc 77 f1 24 bd
       -0.083343655 -0.030676356 -0.01312764 -0.04026934
000380 b4 a7 27 bd d4 91 b0 bc 6f 35 cc 3a 3c 6b 7a bd
       -0.04093142 -0.021553911 0.0015579889 -0.061137423
000390 6f 34 04 bd 0d 08 5e bc 8c d7 33 3d 0c 09 06 3c
       -0.032276567 -0.013551724 0.043906733 0.008180868
0003a0 67 eb 29 bd 49 73 44 3c 2f bb cb 3c 3f 72 e6 bc
       -0.041484263 0.011990377 0.02486953 -0.028130649
0003b0 ec f2 ce bc 76 9f 64 3d 7b 56 a6 3c f7 1d 29 bd
       -0.025262319 0.055816136 0.020304909 -0.041288342
0003c0 ba 9c 51 bc 76 79 27 bd 0a d6 98 3d 9a 54 84 bd
       -0.012793714 -0.04088732 0.074627 -0.06461449
0003d0 e2 88 a4 3c eb 86 d4 ba e6 e9 94 bc 0a 0a 2d 3c
       0.020084802 -0.0016214525 -0.018177938 0.0105614755
0003e0 a2 4e 28 3d 64 d4 69 3c fb b0 82 bd 97 f9 51 bd
       0.041090615 0.014271829 -0.063814126 -0.051263418
0003f0 6f b1 d9 bc 51 35 e0 3c f2 0f 3f bb 47 7f c1 bd
       -0.026573865 0.027369173 -0.0029153791 -0.09448104

projection.bias f4 [17]
000000 e0 4d 9d bc d5 16 3b 3d 58 47 0b 3c 4a 97 49 3d
       -0.019202173 0.04567607 0.008500896 0.049216546
000010 c9 2c 00 bc 6b ee 65 3b 3e e3 32 bd 6c 80 4b 3c
       -0.007823178 0.0035084735 -0.043673746 0.012420755
000020 53 ec cb 3c 47 1c 6e bd 58 0e ff 3b 6f f7 50 bd
       0.024892962 -0.058132436 0.0077836923 -0.05101722
000030 83 f1 88 3c 30 4d 11 3c d2 b0 a5 bc 0f e8 17 bd
       0.016716724 0.008868501 -0.020225916 -0.037086543
000040 41 99 9d bc
       -0.019238116

fc.weight f4 [17, 17]
000000 6a 14 b9 bb 54 fc ec 3d f0 b4 62 3c 33 17 07 bf
       -0.0056481855 0.11571565 0.013837084 -0.52769774
000010 d9 58 f4 be 25 f5 9c be de 14 ba be 1a 08 c3 3e
       -0.47724035 -0.3065578 -0.36344045 0.38092119
000020 f7 f6 34 3e bf c0 ab be 75 0d 81 3e 7e e3 36 be
       0.17672335 -0.3354549 0.2520558 -0.17860219
000030 53 1f f2 bb af 4b 03 3f ca 26 67 3e 7d 67 56 3e
       -0.007388988 0.5128736 0.2257339 0.20937915
000040 0c 20 ea 3e 3c 30 52 3e b8 48 00 3e 2d d1 d4 3e
       0.45727575 0.20526212 0.1252774 0.41565838
000050 ac 9b 8a 3e 80 c6 d7 bd 8a 06 72 3e ee 0e 40 bd
       0.27071893 -0.10535908 0.23635307 -0.046889238
000060 4f 4a d1 3d 80 8e d6 be fa d7 8d bc ec 09 87 be
       0.10219251 -0.41905594 -0.0173149 -0.26374757
000070 6d 28 06 bf ae f6 00 bf 0a 09 e0 3e 44 40 b9 3e
       -0.52405435 -0.50376403 0.43756896 0.36181843
000080 b0 97 93 be eb 12 17 3d 68 c9 8b 3e 6f 26 8f be
       -0.28826666 0.036883276 0.27302098 -0.2795901
000090 ac e6 b2 3e 6a 9b c3 be 03 9f b9 be f8 1c 80 3e
       0.34941614 -0.3820451 -0.3625413 0.250221
0000a0 0c c2 c8 be 62 d6 bd be a5 2d e7 3e e3 30 bf be
       -0.39210546 -0.37077624 0.45152012 -0.37341985
0000b0 06 e3 12 3e 73 3c 83 3e 67 38 c5 be 99 74 a9 be
       0.14344415 0.25632057 -0.38519594 -0.3309677
0000c0 55 49 15 3e f9 33 9a be ca 50 fa 3e 84 17 ab be
       0.14578755 -0.30117777 0.48889762 -0.33416378
0000d0 13 52 c9 3d 24 d3 93 be b3 9d bb be bd e8 80 be
       0.098301075 -0.28872025 -0.36643752 -0.25177565
0000e0 a1 1e c5 3d db b5 86 bc d6 2e 7b 3e 69 1f 20 3e
       0.096249826 -0.016444137 0.24529585 0.15636982
0000f0 32 d2 33 bb 55 19 b9 be d6 4f 30 3e fb ae a6 bc
       -0.0027438519 -0.3615214 0.17217955 -0.020347109
000100 17 57 c1 3d 1d d2 5f 3d 0a ed ad bd 9f 5f 6b be
       0.09440439 0.05464374 -0.08492477 -0.22985695
000110 c7 5e 0b 3e 5c e6 99 bd ac fa dd 3e 6b 8e e2 bd
       0.13610373 -0.07514641 0.4335531 -0.1106232
000120 8d cb 7c be 23 4a c9 be 78 0e e7 3e cd b1 91 be
       -0.24687023 -0.39314374 0.45128226 -0.28455964
000130 f3 c0 e5 be 16 20 04 3f 5d a0 a1 3e 89 cd 27 3e
       -0.4487377 0.5161146 0.3156766 0.16386999
000140 d2 3a b9 3e e9 50 9a bd 24 f6 bb 3e 92 77 d7 be
       0.3617769 -0.07534964 0.36711228 -0.42083412
000150 8d e9 be 3e e0 ef 7a 3e ab 07 1a be 59 cd a3 be
       0.3728756 0.24505568 -0.15041988 -0.31992605
000160 d4 cf 5e be 1a 1d d2 be 67 38 8e 3e 8d c8 b9 3e
       -0.21758968 -0.41037828 0.27777407 0.3628582
000170 34 fd ed 3e 7e 0c b9 3e b7 1c af bd 07 14 27 be
       0.4648224 0.36142343 -0.08550399 -0.16316234
000180 98 20 ca be 26 d9 89 be d1 ba 5e be fe de 6a 3e
       -0.39477992 -0.26923484 -0.21750952 0.22936627
000190 98 44 29 be 7a e9 6c 3e 47 62 76 3e 0e 2d 3d 3d
       -0.16530073 0.23135939 0.24060927 0.046185546
0001a0 8d 22 08 be 72 22 7b 3e 8a 96 c0 be 24 0d ed 3e
       -0.1329443 0.24524859 -0.37614852 0.46299088
0001b0 3d b2 be be ad 0a 77 3e bb 2e ee 3e 8a 59 aa be
       -0.3724536 0.24125166 0.46520028 -0.33271438
0001c0 6c f1 18 3f e9 4d d8 be 1e 9b 67 be 10 18 48 3e
       0.5974338 -0.4224694 -0.22617766 0.19540429
0001d0 6a 7b 4d bd 63 d2 cc 3c 16 b0 f8 be 97 8e 8a 3e
       -0.050166525 0.025002664 -0.48571843 0.27061912
0001e0 64 b0 c4 3e d0 d5 ed bd 9b 28 fd 3b be a2 11 3f
       0.38415825 -0.11613047 0.007725788 0.5688895
0001f0 82 f6 71 3e 64 76 a5 be bc 30 d8 bd 42 c8 18 3e
       0.23629192 -0.32316887 -0.1055617 0.14920142
000200 f5 41 cb 3e 0c 58 67 be 2b 87 64 be de 13 d1 be
       0.3969876 -0.22592181 -0.22317187 -0.4083547
000210 f9 02 fd be e6 fd 91 bd 3d a1 47 3d 0b 98 af 3e
       -0.4941633 -0.071285054 0.048737753 0.34295687
000220 20 3b a1 3e ef 41 c3 be 90 42 bf bd 8a f0 a2 3e
       0.3149042 -0.3813624 -0.09338868 0.31824142
000230 65 96 44 be 67 4d 7b 3d 7d 55 ae be 76 02 9e bc
       -0.19197996 0.061353114 -0.34049597 -0.019288283
000240 39 75 81 be 71 f6 97 3e 0c 3e 70 3d 3b 3a e6 3e
       -0.25284746 0.29680207 0.058652923 0.449663
000250 cd 86 c7 3e 0f 7c 92 be 33 d6 e7 be a6 e6 d2 3e
       0.38970032 -0.28610274 -0.4528061 0.41191596
000260 9f 19 e9 be b2 71 77 be 77 66 a5 3e 72 44 a3 3e
       -0.4552736 -0.24164465 0.32304737 0.31888157
000270 67 5f 8d 3e 65 d0 b2 be 85 08 3c bd 6e c6 f3 3d
       0.2761185 -0.34924617 -0.045906562 0.11903082
000280 c1 2b b4 3e 30 29 58 bc 7a 98 19 be b1 3c 1f be
       0.35189632 -0.013193414 -0.14999571 -0.15550496
000290 c5 85 87 3e 6d 6a 88 be 3e 5e 4b be d2 2c a3 bc
       0.26469246 -0.26643696 -0.1986017 -0.019918833
0002a0 3f 62 55 be a4 c9 35 3d a9 bb 3b be 8b df 5a 3e
       -0.20838259 0.044381753 -0.18333305 0.21374337
0002b0 33 1d af be 98 59 05 3e f5 28 7b be 1a b0 52 3c
       -0.34201965 0.13022459 -0.24527343 0.012859369
0002c0 1b 1c 5d 3d 6a 96 9e 3e 91 23 07 3e 8d 90 b5 3e
       0.05398188 0.30974132 0.13197161 0.35461846
0002d0 7a da d4 bd 38 db e3 be 2d 91 f9 3d 83 63 aa 3e
       -0.103932336 -0.44503188 0.12185893 0.33279046
0002e0 25 10 63 3e 86 b3 94 3e b2 ec 83 bd bb f6 cd 3d
       0.22174127 0.29043216 -0.064416304 0.10056826
0002f0 20 e1 1a be 12 eb a2 be da 00 12 bf 44 9d 11 3d
       -0.15124941 -0.3181997 -0.5703255 0.03555037
000300 c7 83 24 bc 06 32 14 3f 4f 49 e1 be a9 54 63 3d
       -0.010041184 0.5788883 -0.44001243 0.05550066
000310 27 16 89 3d 05 16 ea 3e 1e 03 a8 be 32 fa 61 be
       0.06693678 0.45719925 -0.32814878 -0.22068098
000320 60 da bb 3d 52 3e 9a bd 15 25 04 3f 31 ec 46 be
       0.09172511 -0.07531418 0.5161908 -0.19426037
000330 33 a4 3c be ac a5 0b be 8f 98 0f be 54 97 f4 3c
       -0.18422012 -0.13637418 -0.1402304 0.029857315
000340 ae 84 c3 3e 03 3d fd bc 76 f8 a9 3e 17 80 4f 3e
       0.38187164 -0.030912882 0.33197373 0.20263706
000350 39 fd 6f be e6 ee 01 bf f7 f5 1c 3c 1a c1 53 be
       -0.2343644 -0.50755155 0.009580127 -0.20679131
000360 9c 16 b1 3e a2 9b 44 be 33 70 50 3e 7e 27 98 be
       0.34587562 -0.19199994 0.203553 -0.2971763
000370 1b c9 a7 be 29 35 0d be fa ab 96 be fb c6 c1 be
       -0.3277062 -0.1378981 -0.29428083 -0.37847123
000380 34 a7 d0 3e a7 0f af be f4 19 b1 3e 29 06 01 bf
       0.40752566 -0.3419163 0.34590113 -0.50400025
000390 90 e9 f6 be b2 16 7f 3e 4a e8 c3 3e 41 a4 c1 bd
       -0.4822507 0.24911001 0.3826316 -0.09455157
0003a0 2e da 94 3d 50 c8 72 be dd 2c b3 3e 45 ef 84 3e
       0.07268177 -0.23709226 0.34995165 0.25963798
0003b0 2e 1b 44 3e 28 62 91 3e 5e 70 65 be 82 ac 99 3e
       0.19150993 0.283952 -0.22406146 0.30014426
0003c0 88 a6 24 be d1 1c 10 be 6e 8e 3e be a7 89 10 3e
       -0.16079152 -0.14073493 -0.1860902 0.1411501
0003d0 49 e4 d7 bd 5b 75 f3 bb 5e 9d fe 3d 77 90 d7 be
       -0.10541589 -0.0074297613 0.12432359 -0.42102405
0003e0 3c 1a cf be 3d 91 b4 3d b6 d9 00 be e0 20 a3 3e
       -0.40449703 0.088167645 -0.1258305 0.3186102
0003f0 12 26 73 3e a6 0d 77 3d da 26 a0 be 14 91 1f be
       0.23744991 0.06031575 -0.3127964 -0.15582687

fc.bias f4 [17]
000000 16 3c 0c 3d b0 4e fa bd 21 4f 13 3d 51 34 07 be
       0.03423699 -0.1222204 0.035964135 -0.13203551
000010 d4 d6 78 3e ce 23 52 bc 90 85 ef 3d 4a d9 11 3e
       0.243007 -0.012825919 0.11695397 0.14243045
000020 c5 a5 31 bd 47 6c 4a 3d 9b fd e7 3d 23 82 a0 3d
       -0.04337098 0.049419668 0.11327668 0.078373216
000030 4a 98 5a 3d da 17 14 be 15 80 3d be 90 4a 21 3d
       0.05336789 -0.14462224 -0.1850589 0.03937775
000040 b8 e7 fc 3d
       0.12348884

layer_norm.weight f4 [17]
000000 80 76 b1 3f a7 3b b6 3f 5c 65 b6 3f ba a5 c9 3f
       1.3864288 1.4236954 1.4249682 1.5753701
000010 c2 34 c0 3f 43 29 b6 3f 8b 93 c3 3f a2 dc c5 3f
       1.50161 1.4231342 1.5279402 1.5457957
000020 5b 0a b3 3f 0c 1c cb 3f 8a d4 c7 3f 4f 4c bb 3f
       1.3987535 1.5867934 1.5611737 1.4632663
000030 c6 38 b7 3f f4 a6 c5 3f 6a 0c a4 3f bf 35 ba 3f
       1.4314201 1.5441575 1.2816288 1.4547652
000040 88 dc b9 3f
       1.4520426

layer_norm.bias f4 [17]
000000 ec 60 30 3e c9 fb 0f be f0 b8 e2 3d 43 1d eb 3d
       0.17224473 -0.14060892 0.1107043 0.114801906
000010 ec e9 95 3d db 0f 94 bd d6 5b 9f 3c 48 9a 39 be
       0.07320008 -0.07229587 0.01945297 -0.1812526
000020 8f db 2a be 58 c1 63 3e b3 41 02 3e 4f a1 1c 3e
       -0.16685317 0.22241724 0.12720375 0.1529591
000030 58 3c 13 3e ef 6d 2c be c8 08 fb bd 56 ca 1d 3d
       0.14378488 -0.16838811 -0.12257534 0.03852304
000040 3b 0d 76 bd
       -0.06007121
